SAC_preTrained/RocketLanding/SAC_RocketLanding_0_12.pth (torch, 22110 bytes, 6 tensors)

net.0.weight f4 [64, 7]
000000 b5 c2 a7 3d 89 ef ee be ae e9 b2 3d a9 21 3b 3e
       0.08191434 -0.46667126 0.08735977 0.18274559
000010 62 d4 95 3e dc 45 82 3c ae 04 7f be 54 ae 52 3e
       0.29263598 0.015902452 -0.24904129 0.20574313
000020 af 2a 02 bf 82 3e 1c 3e d9 0b e5 3e e0 ef 20 bd
       -0.5084638 0.1525822 0.44735602 -0.039291263
000030 b7 1a 08 3e 81 dd 9e be de cf 6a 3e 41 29 98 3e
       0.13291441 -0.3102837 0.22930858 0.29718974
000040 84 e1 2b 3f 9b a9 05 3e 1f fd 42 3f b8 d4 40 3f
       0.67140985 0.1305298 0.7616748 0.75324583
000050 da 00 b5 3e c4 dc a9 be 46 99 90 3e 1f fe b3 3e
       0.35352212 -0.33176243 0.28241938 0.35154817
000060 21 ce 22 be d8 fa f1 be 52 5c ed bc 9b fd 0a 3d
       -0.15898944 -0.4726169 -0.028974686 0.033933263
000070 b0 6c cc 3e 96 6d a4 bd 80 d7 95 3e d0 d6 51 be
       0.39926672 -0.08028714 0.29265976 -0.204921
000080 c2 47 28 3f 34 ad f8 3e 80 44 87 be 4e ec 0f bf
       0.65734494 0.48569643 -0.2641945 -0.5621995
000090 6b 7e 56 be d6 4c c5 be bd dd b1 3d ff c2 05 bd
       -0.20946662 -0.38535184 0.08684871 -0.032656666
0000a0 39 ea ab bd 2f d9 63 be d1 86 01 be 70 2e c7 3e
       -0.08394284 -0.22250818 -0.12649085 0.38902617
0000b0 2e bb 99 bd e3 64 18 be 84 da c2 be 15 87 93 be
       -0.07506405 -0.14882235 -0.3805734 -0.28813997
0000c0 47 f1 d5 be a5 8a 05 bf 1d bf 52 3d 2b 9d ba 3d
       -0.41785643 -0.5216468 0.05145179 0.09112009
0000d0 7c 4d 92 be 66 4e c1 bc b2 ea 19 bf c2 18 97 3e
       -0.2857474 -0.023596954 -0.6012374 0.29511076
0000e0 33 15 db bd a1 b4 13 be a6 86 93 bd c8 1c 05 3f
       -0.10697403 -0.14424373 -0.072034165 0.5199704
0000f0 46 bb 59 3e c8 97 05 bf db ff 83 3e 12 5d b6 bd
       0.21262845 -0.52184725 0.2578114 -0.089044705
000100 ef c1 99 3d e3 45 5a be 06 b0 08 bf 0d d4 f9 be
       0.07507693 -0.21315722 -0.5339359 -0.48794594
000110 0b 88 cd be af 16 85 be 0c 19 d6 be 10 b0 52 bc
       -0.40142855 -0.2599387 -0.41815984 -0.012859359
000120 f9 3c 3f 3e 37 56 95 3e 0e a2 4b bf 8f 8c 99 be
       0.18675603 0.2916734 -0.7954415 -0.2999005
000130 c5 b7 22 bd 0a 24 e4 bd 8e 3c 17 bd 3d c6 b0 bd
       -0.039726038 -0.111396864 -0.036922984 -0.08631561
000140 b4 cd 03 bf 28 42 2f bf 91 fe eb be 47 5c a9 bd
       -0.51485753 -0.6846032 -0.46092656 -0.08269554
000150 27 47 3e 3d 9b e8 d6 3e 02 56 a9 3e 5d 36 af 3e
       0.046454575 0.4197434 0.3307343 0.34221163
000160 d8 cd 42 3f 35 ef 89 3e 3e 78 b3 3e 6d ec 55 bd
       0.7609534 0.26940313 0.35052675 -0.052227426
000170 f5 07 f3 be c1 9f a0 3e 0c 10 84 3e 61 5d de 3e
       -0.47467008 0.31371883 0.25793493 0.43430617
000180 0d 9f e1 3e d9 74 81 3e 9b 6c 83 3e de 59 dc 3e
       0.4406666 0.2528446 0.25668797 0.43037313
000190 15 64 ac 3d 73 ce a5 3c 37 81 4d 3f e0 12 62 3f
       0.08417527 0.020240044 0.8027529 0.8831005
0001a0 4f 10 48 3e 26 8b 19 3e 50 c4 05 be 23 73 82 3e
       0.19537471 0.14994487 -0.13063169 0.25478467
0001b0 5e cd 7a 3e 47 27 96 3e 12 9c 03 3f 60 6b e9 bd
       0.24492404 0.2932684 0.5141002 -0.11397433
0001c0 9a 3e ad be d9 7e d4 be 35 80 3c 3d a3 6d d8 be
       -0.33836824 -0.41503027 0.046020705 -0.42271146
0001d0 95 5b 4b bf c1 c7 7a be 0a ba b3 3d 42 f4 93 bd
       -0.7943662 -0.24490263 0.087757185 -0.07224323
0001e0 e6 df ce 3e a8 db 6d be cd 6b 00 bf 86 85 f5 be
       0.40405196 -0.23228323 -0.5016449 -0.47953433
0001f0 c5 4d ed bd ce f4 0d 3e 25 4c e8 bd 65 8f 29 3e
       -0.11587099 0.13862917 -0.113426484 0.16558607
000200 27 ca b1 be b5 05 0f 3f 47 04 83 be ee 45 5d 3d
       -0.34724542 0.55868083 -0.255892 0.05402177
000210 d4 39 29 3e 26 d8 8e bd 4b 71 90 be 1f ff be be
       0.16525966 -0.06974821 -0.28211436 -0.37304017
000220 8c b3 2b be c6 3e 9e bd 09 78 1c be d9 83 66 3c
       -0.1676771 -0.07726817 -0.15280165 0.014069521
000230 ea d2 4d 3e 0c ca 4b 3e b5 70 28 3f 2e 94 8d be
       0.20099989 0.19901294 0.6579698 -0.27652115
000240 bc 70 4f 3f 51 37 b6 3e 5a 88 90 3e 81 a5 12 3d
       0.81031394 0.35589078 0.28229028 0.035802368
000250 73 2a 08 bf 5a 8d e6 3d 74 af 3d 3e 31 fa a0 3e
       -0.5318977 0.112574294 0.18523961 0.3144088
000260 c0 6e e6 3d 69 bc fd 3d f0 da 1d 3f 49 9d b3 bd
       0.11251593 0.12389452 0.616622 -0.08770234
000270 c5 b8 ac 3e 37 a1 7b 3d 5d b7 10 3f ea 9d 96 3e
       0.33734718 0.061433043 0.5652979 0.29417354
000280 58 c4 67 be 63 23 31 3e 58 cc 49 bf 46 7f c3 3e
       -0.22633493 0.17298655 -0.7882743 0.3818304
000290 15 71 1b 3f f1 e0 30 bd 7a 65 fd 3e 87 c6 b3 3e
       0.60719424 -0.04318327 0.49491483 0.35112402
0002a0 35 61 a6 3d 7c ca e6 3c 4c bd 40 be d7 e6 6a 3d
       0.081240095 0.028172724 -0.18822211 0.057349052
0002b0 a6 fa 42 bf 0b cb be be a9 0a 95 bb 6d 30 1d bf
       -0.7616371 -0.37264284 -0.00454839 -0.61402017
0002c0 73 d9 00 3e e5 51 e6 3d ca 89 a0 3e 9d ce 7e bc
       0.1258295 0.11246089 0.31355125 -0.01555219
0002d0 80 e9 be be 31 18 7e 3e 9d de 19 bf 29 55 3f be
       -0.3728752 0.24813916 -0.60105306 -0.1868483
0002e0 b5 7d ea be 8d 07 6e 3e b8 00 ea be c9 55 50 bf
       -0.45799032 0.23245068 -0.45703673 -0.813809
0002f0 ac ce 19 3e 81 21 02 be f0 9c 02 3f 89 38 5f bb
       0.15020245 -0.12708093 0.5102072 -0.0034060797
000300 e7 38 e9 3b 6c 79 0b 3f e9 bc 2b 3f 83 5d 08 be
       0.007117379 0.5448215 0.6708513 -0.13316922
000310 96 fc 63 be 75 f7 f7 bd 69 a0 01 3e c6 b3 d2 be
       -0.22264323 -0.121077456 0.12658848 -0.4115278
000320 a6 f5 38 bf a6 1c 2f bf f9 e2 e0 bd a5 eb fc 3b
       -0.7224983 -0.6840309 -0.109807916 0.0077185207
000330 9b 83 aa 3e 2a 20 89 be 43 e4 80 bd e7 f8 8e bd
       0.33303532 -0.26782352 -0.062935375 -0.06981068
000340 22 92 14 3e e0 e4 ef 3d 07 9f 91 3e 0a f7 2b 3d
       0.1450887 0.11713576 0.2844164 0.04198364
000350 8a 03 eb 3d 36 ab d4 3d cc ee 55 3e bb 55 ad 3e
       0.114752844 0.103842184 0.20891875 0.3385447
000360 b6 37 89 3e d1 11 0e bf aa 34 7f 3c 8e 69 e6 be
       0.26800317 -0.55495936 0.015576521 -0.45002407
000370 ad 22 9d 3d e4 de 1b bf 43 e6 61 bf c4 d1 bf 3e
       0.076726295 -0.6088698 -0.88241976 0.37464726
000380 7b d5 b6 3e c2 56 9f be 34 28 20 bd f0 a6 08 be
       0.35709748 -0.31120878 -0.03910084 -0.13344932
000390 0f 4d a4 3e 25 dc 62 3b 44 8a a6 3d d5 3b de be
       0.3209004 0.003461608 0.08131841 -0.43405023
0003a0 22 af ba 3d 5e b1 b7 bd 40 f2 77 3e 09 69 1e bf
       0.09115435 -0.08969377 0.24213505 -0.6187902
0003b0 6e 66 45 bf 2d 70 45 bd 7e 9d 7d 3e ce 9b cd 3e
       -0.7710942 -0.048202682 0.2476711 0.40157932
0003c0 be dd 6d 3e 2c 4f 0b 3d 98 26 7d 3e b5 71 84 3e
       0.23229119 0.03401105 0.24721754 0.25868002
0003d0 16 b4 46 bc d5 e5 15 bf b5 74 f9 bb bd 44 88 be
       -0.012127897 -0.5855382 -0.0076127895 -0.26614943
0003e0 f3 42 56 3c da 0e bf be 38 b1 75 be fb 03 ce 3e
       0.013077485 -0.37316018 -0.23993385 0.40237412
0003f0 ce bf 94 bd 29 c5 3f 3f 9c e8 df 3c 98 03 30 bf
       -0.07263146 0.7491022 0.027332596 -0.68755484

net.0.bias f4 [64]
000000 b8 6a 22 bf a2 78 6e be 68 a5 e5 bc 37 79 ea 3e
       -0.6344409 -0.23288205 -0.028032973 0.45795605
000010 ac e5 cb bd 7e 9a 56 3d 40 21 36 3f 9f da 07 bc
       -0.09955916 0.05239343 0.71144485 -0.008291869
000020 64 13 f9 be e8 b4 36 3e bd 95 6a 3e 57 80 e7 3e
       -0.48647606 0.17842448 0.22908683 0.45215103
000030 57 42 84 be 2c 03 1f bf b5 04 10 be 61 58 da be
       -0.25831863 -0.62114215 -0.14064296 -0.42645553
000040 4e c9 2d 3e a6 ba 06 3f c3 ff 14 bf 63 c2 6a be
       0.16971323 0.5262855 -0.5820276 -0.22925715
000050 1a 56 20 be d6 3f 34 bf 9e 74 3a 3e 08 65 0b bf
       -0.15657845 -0.70409906 0.18208548 -0.54451036
000060 3d c7 c6 be c7 ff 68 be 18 d0 b9 3e 60 1f bd 3e
       -0.38823882 -0.22753821 0.36291575 0.36938
000070 df 3f 45 3e a3 ca 23 3f 0f 63 af be df 2b 01 3e
       0.19262646 0.63981074 -0.34255263 0.12614392
000080 2c 4e ba 3e 81 a6 44 3d 99 8d 91 be 1e ba 99 bd
       0.36387765 0.048010353 -0.28428343 -0.07506202
000090 0e af d9 3e 6b 46 0b be 92 a3 34 3d d0 db 64 be
       0.4251637 -0.13601081 0.044101305 -0.22349477
0000a0 8a 24 92 be 93 b6 ad be 20 b1 92 be 72 35 a9 bd
       -0.28543502 -0.33928356 -0.2865076 -0.08262147
0000b0 e4 6a 1c 3f 27 da c1 3d f4 44 ce 3e 2c 3a f3 be
       0.611006 0.094654374 0.40286982 -0.4750532
0000c0 66 74 15 3f e6 e3 f6 be 86 d3 bc 3e e5 a4 82 bd
       0.58380735 -0.48220748 0.3688013 -0.063791074
0000d0 67 ba 55 be 1d e0 0d 3f 3c e2 1c 3f 64 c4 07 3e
       -0.20871888 0.55420095 0.61282706 0.13258511
0000e0 b1 c7 bd be ef d7 95 be 79 6d 18 3f 2d ee 0f be
       -0.37066415 -0.29266307 0.5954204 -0.140557
0000f0 45 cf 18 3f 94 54 90 be 9a c9 a3 3e a6 7e c2 bd
       0.5969127 -0.28189528 0.31989747 -0.094968125

net.2.weight f4 [64, 64]
000000 56 1c 51 3e 09 7f 30 3e e6 0b 8c bc 6d 50 42 be
       0.20420966 0.1723596 -0.017095517 -0.18975993
000010 86 c1 35 bd 67 b5 1a 3e f5 58 4a be 40 b8 8c bd
       -0.04437401 0.15108262 -0.19760497 -0.068710804
000020 6f c0 09 3e 72 9f db bd a7 ee 66 be 7b 79 1d be
       0.13452314 -0.10723771 -0.22551976 -0.15378372
000030 ed d0 28 3d ca e2 11 3e ca 06 44 3d 43 5d 07 bd
       0.041214872 0.1424667 0.047858037 -0.033047926
000040 d2 bc f5 3c 1f 31 5d be 50 e6 14 be d1 cf 4d 3e
       0.029997263 -0.2160077 -0.14540982 0.20098807
000050 69 66 b5 bc e9 ec 01 3e f5 20 5d 3e 23 1d 6f bd
       -0.02214356 0.1268803 0.21594603 -0.058377396
000060 18 b0 bf bb 2d 2e 32 be 56 16 29 3d e8 eb 8c bd
       -0.0058498494 -0.17400427 0.041281067 -0.06880933
000070 86 8c 67 be c5 07 25 be 5a 3f 8b 3d 5f ec 57 3b
       -0.22612199 -0.16116245 0.06799193 0.0032947285
000080 49 cc b8 bb 9e c1 66 3c bc ed 8f bd 3b e7 41 3c
       -0.005639587 0.014084248 -0.07027766 0.011834915
000090 03 54 1d 3d 07 8f 48 3e 1f 63 6c bc 90 69 b6 bd
       0.038410198 0.1958581 -0.014427929 -0.08906853
0000a0 72 ad 45 3d e3 e6 6f bb 18 4a 47 bd 18 c7 9d 3d
       0.048261113 -0.0036606125 -0.048654646 0.0770399
0000b0 85 c7 8f bd c8 cb 58 bc cd 94 91 3e f4 45 20 be
       -0.07020477 -0.013232179 0.28433838 -0.15651685
0000c0 59 bf 0a be 40 77 d1 3d 67 db 2b be 78 4b 33 3d
       -0.13549556 0.10227823 -0.16782914 0.043773144
0000d0 94 2b 6c 3d 5e 1f 68 bd b4 26 e3 bd aa 68 e8 bd
       0.057658747 -0.05667054 -0.110913664 -0.11348088
0000e0 59 0a d3 bc 43 ab b5 3d 9c f5 17 3e 7f 07 14 3e
       -0.02576177 0.08870556 0.14839786 0.14455985
0000f0 89 41 a5 3c 6a 40 b8 ba 36 26 a8 bb 73 36 08 3e
       0.020172851 -0.0014057283 -0.005131508 0.1330202
000100 b5 d6 10 3e 81 d0 23 3d cf 03 01 be ab bb 3f be
       0.14144404 0.039993767 -0.12599109 -0.18723933
000110 53 f2 17 3e 36 6b 5f 3e 8b 79 41 be 7e 57 9a bd
       0.14838533 0.21818241 -0.18894021 -0.07536219
000120 1d 33 15 bc 80 5d 1f be f3 fe 9c be c6 7d b8 bd
       -0.009106425 -0.15563011 -0.3066326 -0.090083644
000130 3d cf c5 bd 8c 30 0f 3d 68 d6 9e 3d 98 c9 2f 3e
       -0.09658668 0.034958407 0.077557385 0.17166746
000140 83 6c 40 be 54 da 31 be 9a bb 74 bd 93 4c a9 3b
       -0.18791394 -0.17368442 -0.059749223 0.005166599
000150 78 21 f5 bd f1 7e 66 3d b1 8f 6c 3e c2 b4 1e 3e
       -0.11969274 0.056273405 0.23101689 0.15498641
000160 ff c5 ec 3b 95 82 83 be f3 c9 ae 3c 0c 45 f1 3c
       0.0072257514 -0.25685564 0.021336531 0.02945187
000170 65 1e bf be ba 27 0c bc 2c 94 17 3e b7 83 aa bd
       -0.37327877 -0.008554393 0.14802617 -0.08325904
000180 cd 58 14 3e b1 cb dd bd f0 5f 45 be ae 29 56 bd
       0.14487 -0.10829867 -0.19274879 -0.052285843
000190 30 a2 8a bc 9a 29 3f 3e c7 97 f8 3c 23 86 0a 3d
       -0.01692304 0.18668213 0.03034581 0.03381933
0001a0 ea a7 82 3e 44 8d 25 bd 2d d5 0a be 9f 7e 59 bd
       0.25518733 -0.040417925 -0.13557883 -0.05309927
0001b0 a8 f7 a2 bd 8c 3a ba 3d cf 37 91 3e 12 6b 24 be
       -0.07957393 0.09093198 0.2836289 -0.16056469
0001c0 23 64 b6 bd 3a 43 cf 3d 08 0c a6 bd ec 9a f8 bd
       -0.08905818 0.10120244 -0.081077635 -0.12138924
0001d0 11 cf 5a 3e dc c3 03 be e1 54 32 be 72 39 19 bd
       0.21368052 -0.12867683 -0.17415191 -0.0374083
0001e0 ff 22 fd bd 60 94 01 3e aa 43 20 3e 76 f9 15 3c
       -0.123601906 0.12654257 0.15650812 0.009153714
0001f0 c6 f3 24 be a6 72 93 bd 68 a3 50 3e 4d 07 9d 3e
       -0.16108617 -0.07199602 0.20374835 0.30669633
000200 bc 8c 42 3e 94 0a 56 3e f1 b1 ad bd 27 5b 28 bd
       0.18998998 0.20902473 -0.08481205 -0.041102555
000210 ed 01 1f 3d 85 b3 71 3d ff 55 a8 bd 09 d7 b9 bd
       0.038820196 0.059009094 -0.082195275 -0.09074218
000220 3c b0 41 3e 72 85 02 bd 50 1a c1 3d af 76 37 be
       0.18914884 -0.031865545 0.09428847 -0.17916368
000230 21 c4 77 bb 6e 78 8f 3d 73 3d 33 be 76 d6 61 3e
       -0.003780611 0.07005392 -0.1750391 0.22054467
000240 ce 44 24 3e 93 7b 8e be 7d cb 7c 3e a3 0c b3 3d
       0.16041872 -0.27828655 0.24687 0.08742645
000250 f0 0f 40 bd f1 98 79 3e 23 1d ca bc 06 f2 82 3e
       -0.0468902 0.24374749 -0.024672097 0.25575274
000260 2f dd 25 3e 12 f7 54 3e 1d 35 28 3e a7 4d 1f be
       0.16197656 0.20797375 0.16426511 -0.15556966
000270 d6 3e 02 be e5 67 06 be 4b 11 b5 bd e0 c1 d2 3c
       -0.12719283 -0.1312557 -0.08841189 0.025727212
000280 db f3 cf bd 00 68 25 bd 20 22 a6 bc 58 ae 46 3e
       -0.101539336 -0.040382385 -0.020279944 0.19402444
000290 4d 5a 1e be 60 d4 b0 3d 2b 0c 18 be f4 f9 54 bd
       -0.15464135 0.08634257 -0.14848392 -0.051996186
0002a0 3c 83 26 3c 2f dd 00 be a3 93 55 bb 80 24 5b bd
       0.010163125 -0.12584375 -0.003258922 -0.053501606
0002b0 ea 8c 33 be 97 0a 9b 3e d5 de a1 bd 3d b5 c2 3c
       -0.17534223 0.30281517 -0.0790383 0.023768062
0002c0 54 62 9f bd b8 4b b9 3d f4 d0 6a be 54 e6 2d 3c
       -0.077824265 0.09047645 -0.22931272 0.010613997
0002d0 76 12 94 3e 0e f2 39 bd cf 95 16 be e6 93 33 bc
       0.28920335 -0.045396857 -0.14705585 -0.010960555
0002e0 58 0e 12 3e 8c 6b 65 3e eb 93 95 bd 84 d5 38 3e
       0.14263284 0.22404307 -0.07303604 0.180502
0002f0 c0 6d 93 be 7c f6 18 be a6 d2 8f bd 5b bf 51 3d
       -0.2879467 -0.14937776 -0.070226 0.05120788
000300 c8 0e 56 3e 27 6a de 3c ea 00 2a bd bf 6c 3d bd
       0.20904076 0.027150227 -0.041504778 -0.046246286
000310 d0 e1 5c bd 0f e1 89 3d 37 4e 15 be 3b f2 8b 3d
       -0.05392629 0.0673238 -0.14580618 0.06833311
000320 c4 ba 92 3e c7 f0 12 be 54 82 f7 bc da 2f 86 be
       0.28658116 -0.14349662 -0.030213512 -0.26208383
000330 d4 74 a0 3d 56 e7 08 3e 84 3f d1 bd 81 df f0 3c
       0.07834783 0.13369498 -0.10217193 0.02940345
000340 84 18 39 bd 60 3f 80 be 17 a0 04 3f 20 9e d2 3d
       -0.045189396 -0.2504835 0.5180678 0.10284066
000350 72 61 e0 bd 40 71 2d 3e 1d 31 38 3c 06 d9 af 3d
       -0.10956086 0.16937733 0.011242178 0.08586316
000360 97 f5 b6 3d c7 c1 e8 3d 8c e0 a8 3d b6 a3 11 be
       0.08933561 0.11365085 0.08245954 -0.14222607
000370 c4 ed 0a be 4c 71 54 be a0 5a b7 3d d6 0e 4a 3c
       -0.13567263 -0.20746344 0.08952832 0.012332639
000380 52 9a 5d be be 06 e4 3d 92 04 cf 3d e1 08 26 3e
       -0.216409 0.111340985 0.101082936 0.16214325
000390 73 45 8c be 4f e3 35 bc 78 08 6e bd 19 08 e9 3d
       -0.27396736 -0.011101558 -0.058113545 0.11378498
0003a0 04 be 18 3e 74 bd 10 be 17 32 0a 3e d6 65 b9 3d
       0.14916235 -0.1413477 0.1349567 0.09052627
0003b0 63 26 32 be e9 0a 6c 3d 11 62 3d be 57 aa c5 3d
       -0.17397456 0.057627592 -0.1849444 0.0965163
0003c0 5a f1 28 be 21 30 a7 3d a3 25 09 be e6 37 83 3b
       -0.16498318 0.08163477 -0.13393264 0.0040044663
0003d0 58 39 31 3e 3b 35 bd bd 5f d9 73 be cb 65 4f bb
       0.17307031 -0.092386685 -0.23813389 -0.0031646367
0003e0 6a 6a 15 3e 15 2d cf 3d aa f2 45 be 06 cf 52 3e
       0.14591375 0.101160206 -0.1933085 0.20586786
0003f0 45 74 af bd 38 4f 9e 3c 58 a0 53 be fd 5f 84 3c
       -0.085670985 0.019324884 -0.20666635 0.016159052

net.2.bias f4 [64]
000000 41 63 ca bc 5c 0a 22 3b 0b c3 48 be 34 cd 98 be
       -0.024705531 0.0024725413 -0.19605653 -0.29844058
000010 99 43 4e be 87 4a 15 be a3 ca 03 be 4a f1 26 bd
       -0.20142974 -0.14579211 -0.12870269 -0.040757455
000020 57 de ea 3d 70 bd 6c be ab 53 8f 3e e4 f0 6e 3d
       0.11468189 -0.2311914 0.2799352 0.0583352
000030 19 a0 90 bd c3 b3 cf 3c 83 10 0c 3d bd 55 88 3d
       -0.07061786 0.025354272 0.034195434 0.06656978
000040 17 46 4d 3e da ab bb bd 25 a2 64 3d 71 0b a4 3d
       0.20046268 -0.091636375 0.055818696 0.08009995
000050 4d 38 c6 3c 81 a4 c5 bd e8 9b 7f bd a5 ee c9 3c
       0.024196768 -0.09650517 -0.062404543 0.024649927
000060 6c 39 6f be a0 a8 7b 3e 08 c1 42 be e3 b7 c9 bc
       -0.23361748 0.24576044 -0.19018948 -0.024623817
000070 a5 d4 7a bd 9f b1 1a 3e da 2a cf bb f0 b8 22 be
       -0.06123795 0.1510682 -0.006322247 -0.1589086
000080 a9 b2 30 3e b2 da 3a 3e b6 c4 83 3e 03 42 11 be
       0.17255653 0.18247488 0.25736016 -0.14185338
000090 6e d0 06 3d 66 ac 6b be d3 80 9f be fd 9f 89 be
       0.032913618 -0.23014984 -0.31152973 -0.26879874
0000a0 75 38 54 3e e5 e1 4c 3e 8e 7c 49 bd d0 fd 3e bd
       0.20724662 0.20008047 -0.04919105 -0.046628773
0000b0 d8 83 be 3d fa cc 51 3e a0 a9 4c 3d 28 1a 36 bd
       0.09302491 0.20488349 0.049966455 -0.04445854
0000c0 d9 45 53 bd c2 7b 55 be 18 6c 7b 3d d8 b0 f6 3c
       -0.051580284 -0.20847991 0.061382383 0.030113623
0000d0 ba 3c 56 3e 7f e4 81 be 8e d8 84 bd 62 4e 81 3d
       0.20921603 -0.2536964 -0.06486617 0.063137785
0000e0 a6 15 99 bd f1 52 97 3e 24 fe 57 3d ce 65 2c be
       -0.07474832 0.29555467 0.0527326 -0.1683571
0000f0 88 7d 75 bd 7e b5 09 3e d3 64 d9 3d f4 29 65 be
       -0.05993417 0.1344814 0.10614934 -0.22379285

net.4.weight f4 [2, 64]
000000 20 76 f1 3e 1e 20 bc 3e 80 58 f1 3d 1e 49 99 3c
       0.47160435 0.36743253 0.11784458 0.018711623
000010 46 0e a7 3c 96 17 a5 3d 70 5e fc 3e 4b 8c ac 3e
       0.020392548 0.08061139 0.492908 0.33700785
000020 ea a7 a1 3d fa 02 1e be 1f fd 91 bd 4e a9 a2 be
       0.07893355 -0.15430823 -0.07128357 -0.31769794
000030 ec db af 3d 9c 47 57 bd b5 02 4e be ce c1 79 be
       0.08586869 -0.052558526 -0.2011822 -0.24390337
000040 1e cb 2a be af 95 0d be 3f c8 36 ba 1e 5d 81 be
       -0.16679046 -0.13826631 -0.0006972588 -0.25266355
000050 c1 3e d2 be 97 83 47 3d 22 20 1f bd a8 1a b7 3d
       -0.41063502 0.04870948 -0.038849004 0.08940631
000060 50 ae 7a 3d 9c ff e7 bc 2a de 3a 3d 9d ee 97 be
       0.061201394 -0.028320126 0.04562203 -0.29674235
000070 24 06 92 3e 91 f1 df be f4 d9 81 3e 05 1f b1 3d
       0.2852031 -0.43738988 0.25361598 0.08648495
000080 43 9e 1f be ce 55 15 bd c6 36 80 3e ac 9f 8d 3e
       -0.15587716 -0.036458783 0.2504179 0.27660882
000090 38 a3 20 bf 9c cf 00 be 44 b1 32 3e 36 2c 19 3e
       -0.6274905 -0.12579197 0.17450434 0.14958271
0000a0 6b f5 54 bc a8 68 d0 bd 28 44 3f 3d 31 37 3b 3e
       -0.012997965 -0.101762116 0.04669586 0.18282773
0000b0 b5 81 a5 be 5b 11 11 be 7f 12 99 bd 59 20 9c 3e
       -0.3232552 -0.14166777 -0.07474231 0.3049343
0000c0 5f 6a da 3e 28 d9 29 3e aa ef e4 39 36 e3 0b 3d
       0.4265928 0.16586745 0.00043666112 0.034152232
0000d0 e8 9e b9 be 89 37 90 3e a4 b8 ec 3e 23 c1 6a 3d
       -0.36254048 0.2816737 0.4623462 0.057313096
0000e0 86 fb 17 bd c4 55 9a bd 3f 8d fe 3c 2e fe 7f be
       -0.037105106 -0.0753589 0.03107321 -0.24999306
0000f0 24 10 83 3e 16 c8 75 3a f5 d1 43 3d 34 3e 6f 3e
       0.25598252 0.00093758234 0.047807653 0.23363572
000100 f0 79 8d 3b b0 5a 76 3d b3 86 19 3f af f7 14 3f
       0.0043175146 0.06014508 0.5997116 0.58190435
000110 cc 7b 8d 3e 24 20 3d 3f f4 69 f8 3c fc 03 b6 3d
       0.27633512 0.7387717 0.03032396 0.08887479
000120 37 21 4e be ed b2 82 3e 9b 95 04 be 9e 54 41 bd
       -0.20129858 0.25527135 -0.12947695 -0.047199838
000130 11 e8 95 be 46 1a 4c 3e d3 92 e2 be d1 5d a9 be
       -0.29278615 0.19931898 -0.44252643 -0.3307939
000140 12 5c aa be 8d 5d 0d 3e b3 bf 46 3e ea db 2c be
       -0.3327337 0.13805218 0.19409065 -0.16880766
000150 94 cf 9e bd 38 73 7b be 66 1f 83 3e 3c 52 33 be
       -0.07754436 -0.24555671 0.25609893 -0.17511839
000160 36 18 ff 3e e2 eb ad be 41 dc 9f be 67 6b 32 3e
       0.4982316 -0.33969027 -0.31222728 0.17423783
000170 0e 44 0f be de 28 67 bd eb a7 ed 3d c0 34 23 3f
       -0.13990805 -0.05643546 0.116042934 0.63752365
000180 c7 50 0e bf f1 9b ad be e5 f9 71 be ce 2f 53 3e
       -0.55592006 -0.33908036 -0.23630483 0.20623705
000190 3e d7 da b9 3b 14 2d 3e 1e a1 3e 3f 91 60 8d 3e
       -0.00041740568 0.16902249 0.74464595 0.27612737
0001a0 a9 b7 65 3e 3b 78 f8 be cc 53 79 3e 4f 5d 1b 3e
       0.22433342 -0.4852923 0.24348372 0.15172313
0001b0 0f b5 13 be 19 a3 16 bf fc a4 0f be 06 75 34 3e
       -0.14424537 -0.5884262 -0.1402778 0.17622766
0001c0 d8 ef 03 3e e2 8d 28 3f 80 ef 02 bf 9c f2 62 3e
       0.12884462 0.65841496 -0.511467 0.2216286
0001d0 42 f8 f7 bd 47 be 73 3e c1 70 d9 3c a2 f5 5b 3e
       -0.12107898 0.23803054 0.026543023 0.2148042
0001e0 5b 47 73 be 4f f6 df be 62 b9 ff 3d cf 06 10 3e
       -0.23757689 -0.43742606 0.12486531 0.14065097
0001f0 e5 07 1b 3e 2a da b4 be bd 23 3d 3e b7 41 15 3e
       0.1513973 -0.35322696 0.18470664 0.1457585

net.4.bias f4 [2]
000000 fe cf c3 bc e7 ec 6c be
       -0.02390289 -0.23137246
