SAC_preTrained/RocketLanding/SAC_RocketLanding_0_8.pth (torch, 22036 bytes, 6 tensors)

net.0.weight f4 [64, 7]
-0.1424647 -0.7640225 0.14134029 -0.13378984 0.8628355 0.20094536 0.2844556 -0.3987121
0.8241454 -0.3649421 0.24163304 -0.31512955 0.42796314 -0.493292 0.20529121 -0.84681356
-0.30821145 0.4205561 -0.17484055 -0.41754994 -0.7697114 -1.1983827 0.9146078 -0.7388957
0.12212112 0.08661209 0.3438768 -0.45387438 -0.11664799 0.7217129 -0.6483849 0.12995432
0.117154494 0.43286523 0.7297531 0.076050565 -1.0122118 -0.5859573 0.40709594 -1.7617474
-1.2288163 0.7005725 -1.9809582 -0.14961664 -0.66709495 0.54327077 0.016040571 0.8408246
-0.43254063 0.17535143 0.6331131 0.041142665 -0.36495984 -0.81705683 -1.126022 0.7390985
-0.2279899 -0.7701938 -1.3258673 -0.7276213 -2.1594727 -2.0073886 0.5856963 0.038359296
0.048384275 0.5949011 0.2600918 -1.2276556 -0.75117284 0.36361733 0.12922925 -0.9987141
-0.91071135 0.9156163 -1.2178293 -0.3610563 -0.38241166 0.021911308 -0.15659301 1.1556076
-0.010458652 -2.9760036 -2.636507 1.1496845 -1.2886623 -0.27081248 -1.2574507 0.14824302
-1.2090161 -0.5596574 -0.68370247 -0.8766782 0.8987874 -0.26030478 -0.07317509 0.47135016
0.9969728 -0.47975513 1.3092006 -0.98081964 0.45585632 -0.2381323 1.0693184 0.10520627
-0.714772 -0.49053478 -0.7003038 -0.9729003 -0.45841685 -1.1970733 -2.6043434 0.2797242
0.3144746 -0.85804087 1.006423 -0.4799403 -0.25630295 -1.2711433 -0.03559708 0.055498134
-0.17391384 -1.1670516 -0.1999802 2.676685 2.6258428 -1.675065 -0.026638051 0.36266586
-0.50410295 0.14175017 -3.0450928 -1.9051299 0.019189596 0.015752478 -0.27877668 -0.13456407
0.14712678 2.3292265 1.9200054 -1.075498 0.4079939 0.69933695 0.9203361 0.2527087
-0.38445202 -0.07503394 0.7099555 -0.103004605 0.6083621 -1.0699579 0.30220175 0.94466895
1.4544209 -0.334725 0.017405055 0.102823354 -2.4363976 0.172068 1.2411906 0.3710237
-0.5837377 0.17595954 -0.99323857 -0.71771175 0.73123294 -0.7919953 -0.22699022 -1.3857201
-0.17996778 0.8905774 -1.0241221 -0.19132458 1.0454055 1.6295482 -1.0933169 0.1431525
-0.80455405 -0.5324586 -0.30277243 -2.7100198 -3.5885437 1.0041735 0.23521936 0.33342013
0.7763528 -0.20099427 -2.9841611 -2.3360744 1.1834975 0.1810212 0.2924107 0.4603307
-0.032499168 -2.603431 -3.3819313 1.4249903 -0.39018825 -0.30122608 -1.137891 -0.09283323
2.2268212 1.7240498 -0.08797021 -0.046955526 1.476628 -0.09088989 -0.6349085 0.33875382
-0.31481096 1.0267897 0.06815637 -1.1298331 -0.7100196 0.8425329 -0.7052608 0.030127551
-1.2198882 0.11558355 -1.0173798 -0.6207603 0.96362203 -0.68915236 0.041248556 -0.82795095
0.16316319 0.85595393 1.5387992 0.5672104 0.6524895 1.4780171 -0.099019304 -0.38862538
-0.31258023 -0.73506325 -0.23814896 1.9171792 1.5549219 -0.29432577 -0.07934134 -0.55514467
-0.09500154 0.16041526 0.34837848 0.6707535 -0.27756193 0.005661756 -0.7824858 0.9363807
-0.570241 -1.0023171 -1.0937146 0.88396424 -0.028188292 -0.3087286 -0.1538209 -0.20205526
00000000: 44e2 11be fb96 43bf 82bb 103e 3400 09be
00000010: cae2 5c3f 9fc4 4d3e 2aa4 913e fe23 ccbe
00000020: 31fb 523f b1d9 babe a76e 773e a958 a1be
00000030: fc1d db3e c590 fcbe dc37 523e c6c8 58bf
00000040: e4cd 9dbe 2153 d73e 6709 33be 1bc9 d5be
00000050: ce0b 45bf 9b64 99bf bd23 6a3f 4528 3dbf
00000060: a31a fa3d ae61 b13d 9f10 b03e 3962 e8be
00000070: 24e5 eebd 2dc2 383f 8efc 25bf bf12 053e
00000080: b2ee ef3d 83a0 dd3e 19d1 3a3f 66c0 9b3d
00000090: 2890 81bf 4c01 16bf e16e d03e f080 e1bf
000000a0: da49 9dbf b858 333f 0a90 fdbf 1b35 19be
000000b0: bcc6 2abf cb13 0b3f 8467 833c 4840 573f
000000c0: f775 ddbe 538f 333e b313 223f 3685 283d
000000d0: 04dc babe a32a 51bf 7d21 90bf 8f35 3d3f
000000e0: 2f76 69be 6c2b 45bf 05b6 a9bf 6445 3abf
000000f0: cd34 0ac0 0e79 00c0 31f0 153f a31e 1d3d
00000100: 972e 463d 704b 183f c12a 853e d223 9dbf
00000110: dd4c 40bf 0d2c ba3e ac54 043e baab 7fbf
00000120: 6124 69bf d465 6a3f d5e1 9bbf 5fdc b8be
00000130: 76cb c3be 587f b33c eb59 20be f3ea 933f
00000140: c45a 2bbc d876 3ec0 88bc 28c0 dd28 933f
00000150: e3f2 a4bf efa7 8abe 25f4 a0bf 05cd 173e
00000160: 0ac1 9abf b545 0fbf 2007 2fbf fc6d 60bf
00000170: ee16 663f ab46 85be d2dc 95bd cf54 f13e
00000180: 9c39 7f3f 77a2 f5be e393 a73f ff16 7bbf
00000190: 0066 e93e f4d8 73be 6ddf 883f 6376 d73d
000001a0: 4cfb 36bf 6027 fbbe 1c47 33bf fe0f 79bf
000001b0: 9db5 eabe b339 99bf 90ad 26c0 0338 8f3e
000001c0: d102 a13e 91a8 5bbf 78d2 803f bcba f5be
000001d0: 243a 83be d3b4 a2bf 3ece 11bd 0352 633d
000001e0: 7816 32be f261 95bf 9cc7 4cbe cf4e 2b40
000001f0: cf0d 2840 8868 d6bf 0b38 dabc 57af b93e
00000200: e40c 01bf f526 113e cde2 42c0 4cdb f3bf
00000210: 8033 9d3c 570b 813c d1bb 8ebe 2acb 09be
00000220: 67a8 163e 0c12 1540 bdc2 f53f eba9 89bf
00000230: 94e4 d03e bf07 333f 269b 6b3f 0963 813e
00000240: e5d6 c4be 65ab 99bd a5bf 353f 14f4 d2bd
00000250: 9ebd 1b3f 61f4 88bf 30ba 9a3e d3d5 713f
00000260: 772a ba3f 1361 abbe 0c95 8e3c 0d95 d23d
00000270: f0ed 1bc0 9832 303e 55df 9e3f d2f6 bd3e
00000280: d56f 15bf bd2e 343e e244 7ebf f5bb 37bf
00000290: 1532 3b3f 34c0 4abf 2070 68be 475f b1bf
000002a0: 7949 38be e1fc 633f 6f16 83bf 97ea 43be
000002b0: d9cf 853f 0995 d03f cff1 8bbf 9296 123e
000002c0: 41f7 4dbf 354f 08bf fd04 9bbe f770 2dc0
000002d0: b3aa 65c0 c288 803f 58dd 703e 0bb6 aa3e
000002e0: 0fbf 463f 71d1 4dbe 7ffc 3ec0 3e82 15c0
000002f0: d97c 973f 9f5d 393e dbb6 953e 77b0 eb3e
00000300: d91d 05bd 9d9e 26c0 9071 58c0 1566 b63f
00000310: c1c6 c7be 4e3a 9abe 6aa6 91bf 591f bebd
00000320: 3d84 0e40 aaad dc3f ba29 b4bd 7054 40bd
00000330: 2502 bd3f 7b24 babd 5d89 22bf 2471 ad3e
00000340: e72e a1be d86d 833f 9195 8b3d 5f9e 90bf
00000350: d8c3 35bf 3cb0 573f f98b 34bf 0ece f63c
00000360: 4c25 9cbf 11b7 ec3d 8039 82bf 26ea 1ebf
00000370: efaf 763f 4a6c 30bf 3ff4 283d 98f4 53bf
00000380: 4014 273e cc1f 5b3f 5ff7 c43f b334 113f
00000390: 8d09 273f aa2f bd3f a2ca cabd e8f9 c6be
000003a0: 840a a0be 1b2d 3cbf 52dd 73be 2166 f53f
000003b0: ae07 c73f deb1 96be b67d a2bd f61d 0ebf
000003c0: 2b90 c2bd e643 243e aa5e b23e 80b6 2b3f
000003d0: 991c 8ebe 4086 b93b fd50 48bf a5b6 6f3f
000003e0: 50fb 11bf ed4b 80bf d7fe 8bbf 7b4b 623f
000003f0: 22eb e6bc ad11 9ebe 3a83 1dbe 93e7 4ebe

net.0.bias f4 [64]
0.6787621 -0.52041906 -0.24018937 -0.03597752 0.1799996 -0.41199332 -0.39280266 -0.14901513
-0.1737869 -0.5945594 -0.96398544 0.021006899 -0.59169656 -0.1297005 -0.5320707 0.43471056
0.34124815 -0.30092204 -0.57279545 0.5402944 0.25381902 -0.40632778 0.11435248 -1.0561334
-0.5110496 0.105997406 0.09266057 0.34872037 0.4622341 1.2561373 -1.0658939 -1.0644091
-0.30608144 0.45823255 0.3055558 0.27831316 -0.08580889 0.06219196 0.6437602 -0.5643787
-0.35797092 -0.4605201 0.057168417 0.41615078 0.45115113 -0.30090296 -0.60003495 -0.58244795
0.8351521 0.26017976 0.30280617 0.50788456 0.39426556 -0.46669406 -0.44690832 -0.3227223
-0.6593839 1.4646784 0.76366717 -0.58341587 0.08358387 -0.44989407 0.39906704 -0.2566966
00000000: 5ac3 2d3f 2f3a 05bf 34f4 75be 2a5d 13bd
00000010: d151 383e caf0 d2be 6e1d c9be 6c97 18be
00000020: 31f5 31be 0b35 18bf c0c7 76bf a916 ac3c
00000030: 6d79 17bf 35d0 04be c935 08bf 6292 de3e
00000040: 14b8 ae3e 7412 9abe b9a2 12bf bc50 0a3f
00000050: 91f4 813e 320a d0be a231 ea3d 612f 87bf
00000060: 26d4 02bf 2b15 d93d d3c4 bd3d 7a8b b23e
00000070: f3a9 ec3e 1bc9 a03f 366f 88bf 8f3e 88bf
00000080: b5b6 9cbe 759d ea3e cf71 9c3e 107f 8e3e
00000090: 92bc afbd ffbc 7e3d 78cd 243f 1f7b 10bf
000000a0: f747 b7be 4ac9 ebbe 6e29 6a3d b711 d53e
000000b0: 48fd e63e f40f 9abe e49b 19bf 4f1b 15bf
000000c0: 87cc 553f 4836 853e 6909 9b3e b904 023f
000000d0: 2ddd c93e 86f2 eebe 2bd1 e4be db3b a5be
000000e0: 62cd 28bf 957a bb3f b17f 433f be5a 15bf
000000f0: 052e ab3d 8458 e6be 8452 cc3e bd6d 83be

net.2.weight f4 [64, 64]
0.26416174 -0.6003763 0.43145174 -0.20739262 -0.3274241 0.28228074 0.0107032135 -1.257244
0.37694576 -0.21092342 0.25027853 -0.11825322 0.043997042 0.046004 0.12555276 0.22543363
0.42165503 0.43771634 -0.37355724 0.052751224 -0.7195958 -0.40814334 0.42132407 0.24330057
-0.27412504 0.27092907 -0.10755993 -0.13870333 -0.11636687 -0.21762982 0.2992135 0.24628358
-0.17320275 0.16160764 1.1068361 0.39671382 0.43366337 -0.42454204 0.62911975 -0.1592853
-0.63097554 -0.033574093 1.24043 0.6176416 0.2974556 -0.09217684 -0.44612998 0.05417612
-0.27913177 0.12958156 1.3079748 0.4564217 0.12906966 -0.3982526 -0.3615378 0.6694714
0.19406933 -0.36784577 0.40666008 -0.42933935 0.6395675 -0.4355713 0.27958444 -0.57222766
0.5054841 -0.9072361 -0.07811968 -0.48595557 -0.045846142 -0.20152663 -0.36565134 -0.25331473
-0.14001375 -0.3926921 -0.14155151 0.67134213 -0.24028796 -0.3406493 0.2429539 0.59921634
0.8729876 -0.32493767 0.13001342 0.25327435 0.12347401 -1.7677891 -0.25688037 -0.13744286
-1.0440605 0.9147141 1.1579795 0.38303134 -0.014041092 0.2084557 -0.19260804 -0.2769089
-0.060539972 0.20750359 0.7599659 0.8135665 0.28154352 0.097137354 -0.1212672 -0.9459156
-0.58328766 0.11257678 0.45738804 0.6931345 2.509455 -0.3675981 -1.1756094 -0.6714784
0.13612103 -0.15710591 1.317297 1.7948598 0.068851106 -0.11625722 -0.4985007 0.086861126
-0.8429008 0.2185356 0.15229487 -0.39595658 -0.0946938 -1.2214948 2.4819543 -1.3625207
0.15534899 -0.14599241 0.16019596 -0.17726189 -0.2534863 0.08885095 0.06431461 -0.8125179
0.36215827 -0.1511246 0.20688663 -0.2852872 0.051304616 0.045339435 0.12008405 0.12645105
0.25803396 0.41224363 -0.3698512 0.07884134 -0.609682 -0.18444616 0.47758228 0.40749756
0.14343935 0.20308712 -0.15445574 -0.3494801 -0.17468554 -0.2160947 0.23535958 0.36456293
-0.36611444 0.17638834 0.5397033 0.47693658 0.5076162 -0.40857035 0.16680196 -0.16397752
-0.40750974 -0.08009859 0.92698866 0.46365726 0.027912697 -0.14902876 -0.21028152 0.2140378
-0.35691437 0.14905782 0.582255 0.1951825 0.18940905 -0.3689697 -0.08584913 0.48927775
0.054810174 -0.21435282 0.13850251 -0.22645621 0.60855806 -0.38616994 0.19708131 -0.3716451
0.67753965 -0.6141919 0.040346254 -0.4015531 -0.46128878 0.10133034 -0.4518621 -0.13696152
0.17180318 0.7066051 0.05913564 1.4742986 -0.16126125 -0.04863228 0.006980333 0.6602881
0.78854775 -0.5146674 -0.11721899 0.007437677 -0.21894933 -1.2548202 -0.13043033 0.14234783
-1.2839109 0.823417 1.0528122 0.6455831 -1.7028297 0.0038972646 0.111233115 0.09465612
-0.23405798 -0.77965164 0.67762655 0.82780045 -0.6391162 -0.021643547 0.41656688 -0.21470577
-0.45456272 0.07264832 0.39349517 0.525861 0.7691286 -0.34426698 -0.94598466 -0.16752446
0.028446546 -0.051205754 0.2926796 0.62228227 0.40917432 -0.589763 -0.5416851 -0.016111163
-0.81507635 0.12974076 0.11395314 -0.6971933 0.19922747 -0.8492094 0.8904451 -0.81422514
00000000: 3540 873e 43b2 19bf 3ee7 dc3e bb5e 54be
00000010: 22a4 a7be 1a87 903e 885c 2f3c 5fed a0bf
00000020: 09ff c03e 4ffc 57be 8224 803e bf2e f2bd
00000030: 3e36 343d b16e 3c3d e790 003e 13d8 663e
00000040: 2be3 d73e 5b1c e03e e542 bfbe ab11 583d
00000050: 6e37 38bf 2af8 d0be cab7 d73e c923 793e
00000060: 1e5a 8cbe 37b7 8a3e 6148 dcbd 3f08 0ebe
00000070: c151 eebd 5ada 5ebe 8332 993e c331 7c3e
00000080: 105c 31be 797c 253e ceac 8d3f 131e cb3e
00000090: 2009 de3e 935d d9be fe0d 213f b01b 23be
000000a0: 9d87 21bf fd84 09bd 69c6 9e3f c31d 1e3f
000000b0: 1a4c 983e 36c7 bcbd 266b e4be c7e7 5d3d
000000c0: 5cea 8ebe 07b1 043e b86b a73f 1bb0 e93e
000000d0: d62a 043e c4e7 cbbe 7c1b b9be 7a62 2b3f
000000e0: 1cba 463e 4856 bcbe c035 d03e 5ed2 dbbe
000000f0: b2ba 233f 3403 dfbe b125 8f3e 837d 12bf
00000100: 6867 013f a040 68bf 36fd 9fbd 2bcf f8be
00000110: 2ac9 3bbd ff5c 4ebe a736 bbbe 78b2 81be
00000120: c45f 0fbe f00e c9be e1f2 10be 14dd 2b3f
00000130: 0c0e 76be 9669 aebe e8c8 783e 3e66 193f
00000140: 1e7c 5f3f 3b5e a6be 3d22 053e 2dad 813e
00000150: f1df fc3d ea46 e2bf d385 83be d2bd 0cbe
00000160: c6a3 85bf b42a 6a3f ac38 943f af1c c43e
00000170: 9c0c 66bc 6975 553e 0b3b 45be 01c7 8dbe
00000180: c3f8 77bd d27b 543e 208d 423f e545 503f
00000190: 7926 903e f3ef c63d f05a f8bd 8627 72bf
000001a0: 5752 15bf a88e e63d c42e ea3e 4371 313f
000001b0: e99a 2040 d135 bcbe 5e7a 96bf 02e6 2bbf
000001c0: 5063 0b3e 5fe0 20be 309d a83f f7bd e53f
000001d0: cf01 8d3d 4418 eebd 7c3b ffbe 3fe4 b13d
000001e0: 59c8 57bf ccc7 5f3e 30f3 1b3e d2ba cabe
000001f0: d3ee c1bd f159 9cbf 57d8 1e40 1467 aebf
00000200: ce13 1f3e 097f 15be 690a 243e 2484 35be
00000210: f5c8 81be 7df7 b53d 61b7 833d 2c01 50bf
00000220: cf6c b93e 68c0 1abe 17da 533e 2a11 92be
00000230: ca24 523d d8b5 393d a0ee f53d 627c 013e
00000240: 071d 843e 9911 d33e 235d bdbe 9277 a13d
00000250: 1f14 1cbf 74df 3cbe aa85 f43e 85a3 d03e
00000260: c4e1 123e 12f6 4f3e a529 1ebe 0eef b2be
00000270: c4e0 32be ee47 5dbe 1a02 713e fea7 ba3e
00000280: 5a73 bbbe 259f 343e ff29 0a3f 0831 f43e
00000290: 23f3 013f 2230 d1be 22ce 2a3e b9e9 27be
000002a0: 1ea5 d0be bb0a a4bd 214f 6d3f 7c64 ed3e
000002b0: 2ba9 e43c ff9a 18be 0a54 57be ba2c 5b3e
000002c0: 7bbd b6be 9da2 183e aa0e 153f ecdd 473e
000002d0: 72f4 413e 99e9 bcbe abd1 afbd 9d82 fa3e
000002e0: a280 603d 4e7f 5bbe 9ad3 0d3e 23e4 67be
000002f0: 76ca 1b3f 11b8 c5be afcf 493e 4448 bebe
00000300: 3d73 2d3f ae3b 1dbf 1d42 253d 5e98 cdbe
00000310: 0b2e ecbe 4886 cf3d 785a e7be a43f 0cbe
00000320: 2ced 2f3e 12e4 343f 3638 723d d1b5 bc3f
00000330: ab21 25be a432 47bd 47bb e43b a408 293f
00000340: 44de 493f 3ec1 03bf 8310 f0bd c2b7 f33b
00000350: 4134 60be f39d a0bf 878f 05be a1c3 113e
00000360: 3157 a4bf 75cb 523f 8dc2 863f ef44 253f
00000370: 53f6 d9bf 4069 7f3b 30ce e33d 11db c13d
00000380: e5ac 6fbe 4097 47bf ef78 2d3f bbea 533f
00000390: 1f9d 23bf cf4d b1bc 4148 d53e d4db 5bbe
000003a0: 72bc e8be a4c8 943d 3378 c93e d49e 063f
000003b0: 9de5 443f c343 b0be 0d2c 72bf 888b 2bbe
000003c0: bb08 e93c 20bd 51bd 1ada 953e e44d 1f3f
000003d0: 4c7f d13e b5fa 16bf e0ab 0abf 8ffb 83bc
000003e0: d8a8 50bf c3da 043e 4460 e93d 437b 32bf
000003f0: 4902 4c3e ca65 59bf 36f4 633f 0f71 50bf

net.2.bias f4 [64]
-0.23889333 0.10255488 -0.23217277 -0.034366947 0.057101276 -0.29213023 -0.108190544 -0.086144775
0.31937844 0.32787377 0.089867875 -0.013492759 -0.14881569 0.24484639 0.13303961 0.24728943
0.1026731 -0.16142169 0.35507536 -0.30656543 0.28552312 -0.15585622 0.23589817 0.24150735
0.08691167 0.14107236 0.24740739 0.14529648 -0.14809397 0.35325965 -0.16453786 -0.099220686
-0.38477546 0.31338587 0.12338554 0.17035091 -0.23419692 0.034244813 0.026189353 0.2605033
0.1273256 -0.23114048 -0.0023841457 0.036989927 -0.07382148 0.10469335 -0.26943374 -0.24462931
-0.327234 0.3223854 -0.10177147 -0.33564255 0.11185162 0.1324122 -0.10264825 -0.27015612
-0.25719517 0.15271665 -0.2513166 -0.24902618 -0.089786515 0.1997073 -0.21319963 0.21868727
00000000: 74a0 74be 4b08 d23d b3be 6dbe 5bc4 0cbd
00000010: 07e3 693d 1892 95be 0193 ddbd ac6c b0bd
00000020: 9285 a33e 12df a73e a60c b83d bc10 5dbc
00000030: 2463 18be 03b9 7a3e 893b 083e 7139 7d3e
00000040: 4646 d23d ba4b 25be 70cc b53e 25f6 9cbe
00000050: 1630 923e c698 1fbe 4a8f 713e b44d 773e
00000060: bffe b13d 4675 103e 5d58 7d3e 9ac8 143e
00000070: f2a5 17be 73de b43e 9d7c 28be 3734 cbbd
00000080: 4a01 c5be 1d74 a03e 8fb1 fc3d 7870 2e3e
00000090: 51d1 6fbe 4a44 0c3d 0e8b d63c b060 853e
000000a0: a461 023e 17b0 6cbe 543f 1cbb c082 173d
000000b0: b72f 97bd 7869 d63d 38f3 89be 1b80 7abe
000000c0: 378b a7be b30f a53e 8f6d d0bd 57d9 abbe
000000d0: 7612 e53d 1097 073e 3f39 d2bd e751 8abe
000000e0: 16af 83be c161 1c3e 92ac 80be b800 7fbe
000000f0: fee1 b7bd 1280 4c3e 0151 5abe 8eef 5f3e

net.4.weight f4 [2, 64]
-0.73497653 -1.7206376 -0.5690175 0.83422154 -0.6755486 -0.8230004 -0.7608363 -2.1412528
0.08014042 1.3967416 -1.0541105 -0.97204465 0.9532158 0.6873529 0.75876176 -1.7333674
-0.73642296 -0.7990551 1.341213 1.8777592 -1.8828381 -0.8413399 1.607584 -0.8497514
-0.7948148 -1.357987 1.2050357 -1.0611321 -0.5897862 0.81445146 -0.52141064 1.072079
1.42234 0.17060104 0.7941355 -1.0973425 -0.7160697 1.0891466 0.65350837 1.9109293
-0.84375715 -1.737299 -0.75685805 -1.0198445 -0.6660265 1.0128162 1.1260939 0.95733654
-1.8157455 0.8392235 0.47532037 0.8355155 -1.2395878 0.77132726 0.3888265 1.6372126
-0.8748332 -0.8988262 -0.8709723 -0.8017781 0.9320687 -1.1037413 0.42428327 -1.6400933
-0.29389638 0.040095955 -0.21875288 -0.48236158 -0.14174478 -0.27443466 0.4679235 -0.93367285
-1.7443023 -0.063658 -0.16906491 0.7976489 0.056350995 0.08256075 0.57584643 0.32510746
-0.11629464 1.7864848 -0.47506863 -2.0281138 0.7335737 -0.098499216 -1.0365756 -0.31325185
-0.15354466 0.5841556 -1.0724335 -0.27304935 1.2292495 -0.15065892 -1.6692202 0.26274854
0.9062953 -1.8844553 -0.28553614 -0.13354912 0.12740646 1.3527616 -0.257466 0.12696813
-0.53184235 0.1990039 -0.3250497 0.34096754 -0.8459339 0.4375279 0.026191171 0.10644442
-0.4733036 0.12353834 4.621338 0.23572753 0.03753001 0.24323143 -3.6367579 -0.06352378
0.0026562905 0.13988805 0.26437923 0.21861233 -1.7308099 -0.31961206 -2.002013 -0.23216215
00000000: 6c27 3cbf da3d dcbf 22ab 11bf 8b8f 553f
00000010: c1f0 2cbf 27b0 52bf 2bc6 42bf 490a 09c0
00000020: a920 a43d 6ec8 b23f 18ed 86bf ebd7 78bf
00000030: f305 743f 5cf6 2f3f 363e 423f fcde ddbf
00000040: 3786 3cbf e08e 4cbf deac ab3f 6a5a f03f
00000050: d700 f1bf 0d62 57bf 50c5 cd3f 4f89 59bf
00000060: fc78 4bbf 85d2 adbf 9c3e 9a3f 2dd3 87bf
00000070: 3afc 16bf e47f 503f 2b7b 05bf e239 893f
00000080: 3d0f b63f 0ab2 2e3e 774c 4b3f b875 8cbf
00000090: 5850 37bf 2869 8b3f 534c 273f 5599 f43f
000000a0: 7800 58bf d05f debf 73c1 41bf 448a 82bf
000000b0: b680 2abf f6a3 813f d823 903f 0214 753f
000000c0: 596a e8bf 5ad7 563f 315d f33e 58e4 553f
000000d0: d0aa 9ebf b475 453f 4414 c73e 2f90 d13f
000000e0: 12f5 5fbf 7919 66bf 0af8 5ebf 5441 4dbf
000000f0: 0e9c 6e3f 6547 8dbf a83b d93e 94ee d1bf
00000100: 9679 96be a83b 243d c100 60be 19f8 f6be
00000110: 8b25 11be b382 8cbe ab93 ef3e 2f05 6fbf
00000120: 4c45 dfbf 205f 82bd 5a1f 2dbe b832 4c3f
00000130: 4dd0 663d 9c15 a93d ac6a 133f 7c74 a63e
00000140: e22b eebd 89ab e43f 323c f3be 9ecc 01c0
00000150: 7ccb 3b3f f5b9 c9bd 82ae 84bf 8c62 a0be
00000160: d03a 1dbe 398b 153f 8045 89bf 20cd 8bbe
00000170: 0c58 9d3f 5546 1abe 02a9 d5bf fa86 863e
00000180: f802 683f d535 f1bf cb31 92be 1ac1 08be
00000190: d776 023e 4b27 ad3f 95d2 83be ef03 023e
000001a0: d226 08bf aec7 4b3e ea6c a6be 4c93 ae3e
000001b0: 208f 58bf a803 e03e de8e d63c 88ff d93d
000001c0: d954 f2be ab01 fd3d 00e2 9340 8f62 713e
000001d0: 11b9 193d a911 793e a4c0 68c0 c118 82bd
000001e0: 2915 2e3b d03e 0f3e b75c 873e e9db 5f3e
000001f0: 2e8b ddbf 31a4 a3be fb20 00c0 eabb 6dbe

net.4.bias f4 [2]
-0.11053418 1.0790793
00000000: bf5f e2bd 451f 8a3f
